clickstream_model_beta(5).pth (torch, 806704 bytes, 15 tensors)

embedding.weight f4 [519, 128]
00000000: 0000 0000 0000 0000 0000 0000 0000 0000
00000010: 0000 0000 0000 0000 0000 0000 0000 0000
00000020: 0000 0000 0000 0000 0000 0000 0000 0000
00000030: 0000 0000 0000 0000 0000 0000 0000 0000
00000040: 0000 0000 0000 0000 0000 0000 0000 0000
00000050: 0000 0000 0000 0000 0000 0000 0000 0000
00000060: 0000 0000 0000 0000 0000 0000 0000 0000
00000070: 0000 0000 0000 0000 0000 0000 0000 0000
00000080: 0000 0000 0000 0000 0000 0000 0000 0000
00000090: 0000 0000 0000 0000 0000 0000 0000 0000
000000a0: 0000 0000 0000 0000 0000 0000 0000 0000
000000b0: 0000 0000 0000 0000 0000 0000 0000 0000
000000c0: 0000 0000 0000 0000 0000 0000 0000 0000
000000d0: 0000 0000 0000 0000 0000 0000 0000 0000
000000e0: 0000 0000 0000 0000 0000 0000 0000 0000
000000f0: 0000 0000 0000 0000 0000 0000 0000 0000
00000100: 0000 0000 0000 0000 0000 0000 0000 0000
00000110: 0000 0000 0000 0000 0000 0000 0000 0000
00000120: 0000 0000 0000 0000 0000 0000 0000 0000
00000130: 0000 0000 0000 0000 0000 0000 0000 0000
00000140: 0000 0000 0000 0000 0000 0000 0000 0000
00000150: 0000 0000 0000 0000 0000 0000 0000 0000
00000160: 0000 0000 0000 0000 0000 0000 0000 0000
00000170: 0000 0000 0000 0000 0000 0000 0000 0000
00000180: 0000 0000 0000 0000 0000 0000 0000 0000
00000190: 0000 0000 0000 0000 0000 0000 0000 0000
000001a0: 0000 0000 0000 0000 0000 0000 0000 0000
000001b0: 0000 0000 0000 0000 0000 0000 0000 0000
000001c0: 0000 0000 0000 0000 0000 0000 0000 0000
000001d0: 0000 0000 0000 0000 0000 0000 0000 0000
000001e0: 0000 0000 0000 0000 0000 0000 0000 0000
000001f0: 0000 0000 0000 0000 0000 0000 0000 0000
00000200: eaf8 153e f6a8 84be f57d 18bf 8255 ab3e
00000210: ae3d 703f 66ea c03e 5675 ee3f 0f0e 3040
00000220: 0bf1 75bf d2fe ee3f 319d 2a3e ce78 20bf
00000230: 7cc0 893f 81da 34bf 6001 463f c22a 603e
00000240: 2719 82bf 08f5 fabe 86ad ebbf f010 eebf
00000250: c95d 343e 727d 91be 9a8c 94be 962b 77be
00000260: 6ff1 163e 72db 0f3f a243 853e a810 c93d
00000270: 6a2a ecbe 6e6e 493f 9afc 553f e210 06bf
00000280: a1ca 9c3f 7d67 c33f 7217 183f 9739 133f
00000290: caed 79bf 2d7c 623f d52e 933d 0ff1 213c
000002a0: b39f f6bd 9e58 23bf c100 0640 0a93 90be
000002b0: 6ab3 6e3f df10 ab3f ec9c bfbc 1dd3 86bf
000002c0: 9c28 e43f 837d 8ebb ac62 973f dc38 5abf
000002d0: 2f2b 4e3d 740b 85be 0d03 3cbe 8134 253e
000002e0: 3714 56bf 405f 963e da19 e7be 6ffa 793f
000002f0: cbf9 51bf 2e54 f2be d72a 00bf 6e4c 473e
00000300: 3f5e 67bf bc81 7cbe 65ff 823e e13a e2be
00000310: 254e 3dbf 079c a73e 5621 4d3f 244d f13e
00000320: d38d 5cbf b80a 4abf a4c4 96bf cc0d bbbe
00000330: 06ed cc3e 6f85 c93e ef27 323f 709e 503e
00000340: a702 eabe 2ec1 2540 b300 8f3f 3aa3 093f
00000350: f526 67bf 1b36 49bf f8a2 6f40 3361 a5bf
00000360: e0d8 3cbf 82d3 e13e 4d13 803e 515d 953f
00000370: f0cc 5ebf 0d21 4a3f 3a74 aebf 4bcd 96bf
00000380: ce7f 8bbe 8d83 a4bf 95a0 413d 550a 223e
00000390: 9f6f ddbe e334 88bf 3c74 c9bd bc54 08c0
000003a0: 314b 0740 5d50 07bf fdc5 0140 6715 36bf
000003b0: c076 f4be 4397 01bf 5e32 44bd 02bf dabe
000003c0: 654f c8bd d645 99be 57d2 993f f50d 42be
000003d0: 5327 f2bf fafb aebe 9a5b a1bf fd3c bc3d
000003e0: 6fb5 c2be 5460 28c0 ad2e ee3e bc57 79be
000003f0: d186 ccbf 645b 9dbf c553 d4be 725b c0be
0.0 0.0 0.0 0.0 0.0 0.0 0.0 0.0
0.0 0.0 0.0 0.0 0.0 0.0 0.0 0.0
0.0 0.0 0.0 0.0 0.0 0.0 0.0 0.0
0.0 0.0 0.0 0.0 0.0 0.0 0.0 0.0
0.0 0.0 0.0 0.0 0.0 0.0 0.0 0.0
0.0 0.0 0.0 0.0 0.0 0.0 0.0 0.0
0.0 0.0 0.0 0.0 0.0 0.0 0.0 0.0
0.0 0.0 0.0 0.0 0.0 0.0 0.0 0.0
0.0 0.0 0.0 0.0 0.0 0.0 0.0 0.0
0.0 0.0 0.0 0.0 0.0 0.0 0.0 0.0
0.0 0.0 0.0 0.0 0.0 0.0 0.0 0.0
0.0 0.0 0.0 0.0 0.0 0.0 0.0 0.0
0.0 0.0 0.0 0.0 0.0 0.0 0.0 0.0
0.0 0.0 0.0 0.0 0.0 0.0 0.0 0.0
0.0 0.0 0.0 0.0 0.0 0.0 0.0 0.0
0.0 0.0 0.0 0.0 0.0 0.0 0.0 0.0
0.14645734 -0.25910157 -0.59567195 0.33463675 0.93844116 0.37678832 1.8629558 2.750858
-0.9607093 1.8671515 0.16661526 -0.62684333 1.0761867 -0.7064591 0.7734585 0.21891311
-1.0163926 -0.4901507 -1.841233 -1.8598919 0.17613901 -0.2841602 -0.2901352 -0.2413772
0.14740537 0.5619422 0.26028162 0.0981763 -0.4612611 0.7868413 0.83588564 -0.5236951
1.2249337 1.5265957 0.59410775 0.5750975 -0.9762846 0.8847073 0.07186667 0.009884133
-0.12042179 -0.63807094 2.093796 -0.28237182 0.93242514 1.3364524 -0.023390256 -1.0533177
1.7824893 -0.0043484583 1.1826987 -0.8524301 0.05033415 -0.259853 -0.18360539 0.1613331
-0.83624595 0.29369545 -0.4513691 0.97647756 -0.8202178 -0.4732985 -0.5006537 0.1946275
-0.90378183 -0.24658865 0.25585476 -0.44185546 -0.73947364 0.32736227 0.8012899 0.47129166
-0.86153907 -0.78922606 -1.177876 -0.36533964 0.40024585 0.39359614 0.69592184 0.20372939
-0.4570515 2.5899158 1.1172088 0.5376469 -0.9029382 -0.78598183 3.7443218 -1.2920288
-0.73768425 0.4410668 0.25014725 1.1669103 -0.8703146 0.7895668 -1.362922 -1.17814
-0.27245945 -1.2852646 0.047272284 0.15824254 -0.43249223 -1.064114 -0.09836623 -2.1301718
2.1139643 -0.52857 2.0277092 -0.7112641 -0.4774685 -0.5062143 -0.047899596 -0.42723852
-0.09780768 -0.29936093 1.2017316 -0.18950637 -1.8918251 -0.34176618 -1.260608 0.0919132
-0.38029048 -2.6308794 0.46519986 -0.24349874 -1.5978643 -1.2293515 -0.4147016 -0.37569767

lstm.weight_ih_l0 f4 [512, 128]
00000000: 997e 253c 921c d8bc 896c 313d fdc5 9abd
00000010: b71d cebc 18bc 9ebc cedd 383d 2b31 993d
00000020: 0163 533d a848 883c 8d72 003e 13c2 30bd
00000030: dcae c1bd 36a8 90bd 9f36 463d 76d0 e93d
00000040: 04e8 0dbd 03da f83d b5a5 f63d d2be 9abd
00000050: 3e4f f5b9 2aa9 abbd 548e d63d 5238 2c3d
00000060: 25b5 503d 142b 70bd 7c3e c1bc ffa5 173d
00000070: 0f1e e13d 9da4 c5bc 2970 a93d fd7d 57bd
00000080: bb20 aa3d 0204 42bc b0a8 0cbd 0c9c 2abd
00000090: 34e0 b7bc 3353 ad3c a186 88bd e23d 633d
000000a0: e9d9 7fbc 0a05 1d3d 6fe0 71bd be1f 90bd
000000b0: 5a9b 75bd a95a a13d d111 3abd 4178 b43c
000000c0: 99bd 1d3d 60f8 e5bd b910 6a3d 5650 b5bd
000000d0: 42f8 083d 3e56 a5bb e246 83bd 1aec 04bc
000000e0: f655 b43d 0395 cdbd 5e90 d93d 3a0e e7bd
000000f0: 212d 343d 6780 7e3d f5e7 a7bd 256f 9cbd
00000100: 01ae b03d 9f3e 6b3d c642 333d 4d43 56bd
00000110: e775 c2bb 4bc9 673b bc95 96bb 68dd 9eb9
00000120: a854 db3c 9578 993d a5cb 893d a414 94bc
00000130: 3caf 2bbb 36f1 27bd 3f34 2d3d f632 04bd
00000140: 01f2 33bd 0b17 21bd ec31 b63d 9485 a53d
00000150: 2165 ae3c 34dc 25bc 1c55 c23d c6e8 90bd
00000160: 834f 8fbd 47b5 0b3c b60a 45bc 797a 063e
00000170: d54a b93c ac70 3fbc 1d15 673d f460 21bc
00000180: 89c1 6bbd 83f3 03bd 15c5 b9bc dcfb 85bd
00000190: 3d4a a23d f43b ddbc 0537 873d 3508 003d
000001a0: 1ec3 4a3d 6a96 8ebd 7b34 833d 5e46 db3d
000001b0: 8312 94bc 361f 88bc 244d 2d3d 8257 1a3d
000001c0: 7d2a d7bd 84fa 383c ea16 4abd 0543 063e
000001d0: 8727 023c c2ec 94bd 2331 3dbc a2b6 a73d
000001e0: 9bef 033c f189 9bbd 2f89 2c3d 7c47 5fbd
000001f0: 5a3d 41bd 059f d53d 9fe7 a83d 260d ac3d
00000200: e513 623d 33d0 e9bd bc72 a13c 0817 13be
00000210: e960 8dbc b27a 0a3e 28de 00bc 758b d3bd
00000220: 202a 74bd 828e 78bd 3394 393d 05e8 8fbd
00000230: 1d6a b8bd 46df c53c d0d4 483d 371f d6bd
00000240: cae8 9dbc c008 7b3d f998 9dbd 2b4e d73c
00000250: 944f 9c3d ee87 babb 8c6a 6dbd 4305 413c
00000260: 0a2d 9f3b cca0 cb3b 9e9a 80bd a313 b03c
00000270: a97b 82bc 2195 25be a6ad b7bd 5475 a4bc
00000280: f68b b9bd 059e 783d b03d 9c3c d7cb b43d
00000290: 68bd 0f3d 4b0c 843d 1346 2abc b474 75bd
000002a0: 2b83 c5bc 91cc c53d b612 37bd a230 953d
000002b0: 1aaa b93c b207 9fbd 6da6 64bd 4462 313d
000002c0: 3901 963d 3330 5abd 4140 cebd b97f a2bd
000002d0: 2e73 703d 88f9 bdbb 73b2 c03c 9231 3fbd
000002e0: 03aa 193d 2264 4abd 3472 8a3c 1c92 23b9
000002f0: fef0 6ebd d378 4abd c053 76bd 56d5 d93d
00000300: 7c34 d7bd 1aea f8bc 29a8 c1bd 6ec9 3f3c
00000310: c985 32bd 616b 35bd 3f2a 67bc 1a80 97bd
00000320: 88e3 843b ca4f 6d3d 52a4 3abd 2cd2 3d3d
00000330: d63f 013d 9e18 40bd 361f 573d a136 183d
00000340: d6af 80bd 7407 873b 5e44 fd3d e4b5 6cbd
00000350: 3435 c6bc 2312 ff3c bc31 d8bc 877b d9bb
00000360: faf3 d93d 5752 8b3d 1b74 0f3d ca4f 6e3d
00000370: ded9 483d a4d1 9d3d fe06 b4bb 5dcb a23d
00000380: e704 32bd 5ca7 95bb 9992 d3bc a30b b6ba
00000390: 9ced 02bd 2d5b b63b c4c4 c2bd 3504 b13d
000003a0: 6faf a3bd 3195 cc3d 09fa 683c ddd1 ac3d
000003b0: d659 4f3d e096 d33b 7bc8 863b b2d8 0abd
000003c0: d079 2b3d ae79 303d 3a85 40bd fa13 17bc
000003d0: c350 8abc ec1b f13d 968f d0bc 6095 4ebd
000003e0: 12ff d338 8542 a43d ecc3 623d c524 ad3d
000003f0: cbe5 a7bc 68f4 cd3d 5603 a9bd a175 91bd
0.010100984 -0.02638081 0.043316398 -0.075572945 -0.025160654 -0.0193768 0.045133404 0.07480081
0.05160809 0.016636208 0.12543698 -0.043153834 -0.0945718 -0.07063334 0.048391934 0.11416714
-0.034645095 0.121509574 0.12043325 -0.07555927 -0.00046789082 -0.08381875 0.10476366 0.0420459
0.050954003 -0.058634833 -0.023589365 0.03702354 0.10992061 -0.024126345 0.08273346 -0.052610386
0.08307024 -0.011841776 -0.03434056 -0.041652724 -0.022445776 0.021157837 -0.066663034 0.055478938
-0.015615919 0.038334884 -0.059051927 -0.07037304 -0.059962608 0.0787862 -0.045427147 0.022029998
0.038510893 -0.112290144 0.057144854 -0.088532135 0.033439882 -0.0050456813 -0.06410004 -0.008112932
0.08805458 -0.10038187 0.10623239 -0.112820104 0.04398835 0.062134173 -0.08198539 -0.07638387
0.086269386 0.057432767 0.043764852 -0.052310277 -0.005934465 0.0035367783 -0.0045954864 -0.0003030107
0.026773766 0.07493702 0.06728295 -0.018076248 -0.0026196977 -0.04100152 0.042286154 -0.032275163
-0.043931965 -0.039328616 0.088962406 0.08082119 0.021288456 -0.010123301 0.094888896 -0.07075648
-0.069975875 0.008527107 -0.0120264795 0.13132657 0.02261869 -0.011684578 0.05641662 -0.009849776
-0.057557616 -0.032214653 -0.022676984 -0.06542179 0.07924316 -0.027006127 0.06602291 0.031257827
0.049502485 -0.06962283 0.06406494 0.10706781 -0.018075233 -0.016616445 0.042309895 0.03768111
-0.10506151 0.011290196 -0.04933826 0.13111503 0.007943994 -0.072717205 -0.01154736 0.08189131
0.008052732 -0.075946696 0.042123016 -0.054511532 -0.04717765 0.10430721 0.08247303 0.08400945
0.055194754 -0.11416664 0.01970803 -0.14364254 -0.017258124 0.13523367 -0.007865466 -0.10329334
-0.059610486 -0.06068278 0.04530735 -0.07026676 -0.090046145 0.024154317 0.04903108 -0.104551725
-0.019276042 0.06128764 -0.07695193 0.02628239 0.07632366 -0.0056924736 -0.05796294 0.01178104
0.004857664 0.006214237 -0.06279491 0.021493739 -0.015928106 -0.1617017 -0.08968668 -0.020075478
-0.090598986 0.060697574 0.019072384 0.08827942 0.03509274 0.06447657 -0.010392684 -0.05992575
-0.024110397 0.096581586 -0.04469558 0.072846666 0.022664119 -0.0776514 -0.05582278 0.043306604
0.07324452 -0.053268623 -0.10070849 -0.079345174 0.058703594 -0.0057975687 0.023522591 -0.046678133
0.03751565 -0.0494119 0.01690016 -0.00015599321 -0.058335297 -0.049431633 -0.060138464 0.10636394
-0.105080575 -0.030385066 -0.09455902 0.011705739 -0.04358462 -0.044291858 -0.014109193 -0.0739748
0.004055444 0.05793742 -0.045566864 0.046343014 0.03155502 -0.046898477 0.05252 0.037161473
-0.06283538 0.0041207615 0.12366556 -0.057790652 -0.024195291 0.031136578 -0.026390903 -0.00663704
0.10642238 0.068028145 0.035022836 0.05818156 0.0490359 0.077060014 -0.0054939976 0.07948945
-0.043461706 -0.00456707 -0.02582674 -0.0013888966 -0.031964883 0.005565068 -0.09510186 0.086433806
-0.07992446 0.099893935 0.014219769 0.08438466 0.050622784 0.0064571947 0.0041132546 -0.033898063
0.041864216 0.043084793 -0.047002055 -0.009221071 -0.016884213 0.11772904 -0.025459092 -0.050435424
0.000101087746 0.080205 0.055362627 0.08454279 -0.020495316 0.100563824 -0.082525894 -0.07102514

lstm.weight_hh_l0 f4 [512, 128]
00000000: aa48 06bd 89f4 753d 58ed 88bd 8442 113d
00000010: da41 b63d 13cf 033e 8279 0d3d f76f f43d
00000020: 9888 e5bc 334c 8b3d 91cb 6f3a 6923 073e
00000030: 80eb 94bc 1421 9bbd d49c 89bc 8736 033d
00000040: 0ab5 2abd 795a 283a 1cb3 debd 8955 d5bd
00000050: faf6 67bd 9e6c 2abd ceb5 413d 65c0 043d
00000060: 8840 93bd 0d50 ec3c 4635 e2bc a743 93bd
00000070: 5b92 033e 6ac4 a3bd 27a5 42bd 88c0 25bc
00000080: 3121 f9bd 4299 5e3c e2b1 80bd 4193 2abd
00000090: 44de 14bd ab75 b5bd 1273 dcbc 0503 113d
000000a0: 157d b7bd 54e0 a13d 9c3d 3b3d 0710 72bd
000000b0: 7490 bfbc f7cb ef3c af42 46bc 8edd 6f3d
000000c0: 875d 9c3d 2841 82bd 0c7e c0bd 1013 16bd
000000d0: 755d 91bc 99ce cd3b b977 743c 64fb 413d
000000e0: 83f4 0a3e 844f cebd 9fe7 db3c 6cbb 653d
000000f0: fff1 ff3d e150 0a3e 09cd ec3c 5e2e 383d
00000100: 5481 f7bc f4eb 503c 1921 d8bd 4150 5cbd
00000110: 5d7e e4bd bc67 de3d 70d6 a6bd 063d 6e3c
00000120: dd08 b23d 474d c8bd 75c8 79bd 9b0d b03c
00000130: d120 85bc 000d 923d 34b3 0bbd a862 39bd
00000140: dbf2 2e3d 8d2e 25bd 337f 0fbd 77a0 ea3d
00000150: ffe6 1cbd c728 083d d5f0 7ebd 5aba 06be
00000160: e4a5 38bd 9b03 023e e5ec a7bb dc88 133d
00000170: 65a3 2c3d 2e4c 5c3d c817 053c 879c de3d
00000180: 213a 2dbc 2acd a13c c775 9c3c 678c bd3d
00000190: 66a9 d63c 32ef 0d3d 78d4 133c 32f9 723d
000001a0: 5546 e43d 1014 c0bd d662 093d 45a9 f1bc
000001b0: 3f9d a63d 3d9b 8dbd 52b3 483c 3c29 a3bc
000001c0: 0fab 1bbd f8ce dd3c 0b1e 823d 1efc 5a3d
000001d0: 6c19 2ebd 3668 d9bd c38d f83c 8e1e 3438
000001e0: b5c6 fabc d8bf 3a3d 2157 77bc f42b e23d
000001f0: b65c d8bc 8b81 babb fb0c 013c 44ce a2bd
00000200: a9b2 e03c 2003 a4bd d7f0 0c3d 230c a0bd
00000210: 2a8c 1dbd a070 0dbc 5807 833c 3201 8e3d
00000220: 3985 74bc 685e 0b3d 4782 073d d83b 72bd
00000230: cfdf 313b 193e abbd d3d5 84bd 0a58 bb3d
00000240: 996a 053c e750 ca3d 437f 1ebc d868 fe3d
00000250: ccf8 1bbd 4b91 b93d a994 9bbd ff55 8bbd
00000260: 1212 1b3d 3a75 0f3c 5226 de3c eeb3 debc
00000270: 4a4a 6cbc 2c9d f53b f560 89bb be39 abbd
00000280: 8287 c2bd bfae 443d 3c6f 17bd 1e26 113d
00000290: 820a 8abc 2700 b53c bf37 583d f50a 833d
000002a0: 31ad acbd 91dd 9d3d 0750 bbbb 43f1 74bd
000002b0: c1b0 6a3d e3b3 a0bd cc13 223d f97c 83bd
000002c0: d211 2dbd 4aea 08bc 4848 9a3d a2b6 3dbd
000002d0: 463a c8bd e171 5d3d 88d1 5ebd a2ed c83d
000002e0: e98d 55bc 6fc3 bfbd f527 42bd b1cb 273c
000002f0: 49e3 ae3c 713e 4b3a 0c7c 89bd 0fbb 713c
00000300: f415 9d3d ad05 fabc 75f1 4e3d f0ff bc3d
00000310: 6adc 3f3d 0f29 993d f660 e3bc ecc4 093d
00000320: 0bd7 b63d 0b0b c1bd 5cc3 5d3d c8e9 14bd
00000330: 2b1b 87bc 5470 d1bc 6658 abbd 2439 cf3d
00000340: fa4c d8ba 31d7 a93d 005c bfbd fb93 c9bc
00000350: 7409 e13d 8597 2abd 7033 503c 6050 d13d
00000360: cafc 6ebd 5edb 1abd c216 9abd dd17 adbc
00000370: 27e2 523d 85c2 073d d137 e0bd 3288 4b3c
00000380: 9c44 babc 4369 163d e232 3d3c 3142 61bd
00000390: 2dcf bd3d 8c95 1fbd fe74 57bd 5c8e 873d
000003a0: 2667 85bd 0982 0f3d cc23 ab3c 7fd7 a93c
000003b0: 2e4e fabc 9b55 c03d 0d70 9d3d 33df b53d
000003c0: 9822 963c d3b7 6ebc 1d86 0bbb 33d7 a83d
000003d0: 148a b03d f9e2 b7bc 8b84 813d 38db 883c
000003e0: 2e72 e8bd 7230 503a 22c8 383d 6f0d 3ebd
000003f0: 5521 a0bd 817d 16ba 7038 d5bb 5201 09bd
-0.03278414 0.06004766 -0.06685895 0.035463825 0.08899279 0.12871961 0.034539707 0.11935418
-0.028019235 0.06801643 0.000914746 0.13197102 -0.018178701 -0.075746685 -0.016798414 0.032034423
-0.04167656 0.0006422173 -0.10874006 -0.10416705 -0.05663202 -0.04160749 0.047292523 0.032410044
-0.07190043 0.028846765 -0.027613293 -0.07190638 0.12848799 -0.079964474 -0.047520783 -0.010116704
-0.12164534 0.013586344 -0.062839285 -0.04164434 -0.03634478 -0.08860334 -0.026910339 0.03540327
-0.089594044 0.07904115 0.045713052 -0.059097316 -0.02338431 0.029272063 -0.01210086 0.0585609
0.076350264 -0.06360084 -0.093990415 -0.036639273 -0.01774476 0.006280732 0.014921122 0.047358885
0.13569836 -0.1007376 0.026843844 0.056086943 0.12497329 0.13507415 0.028906362 0.044966094
-0.030213036 0.012751568 -0.10553188 -0.053787474 -0.111569144 0.108596295 -0.081463695 0.014540916
0.08693097 -0.097803645 -0.060982186 0.021490863 -0.016251 0.07131386 -0.03410645 -0.0452601
0.042712074 -0.040327597 -0.035033416 0.114563875 -0.038306233 0.033242013 -0.062241394 -0.13157025
-0.04508008 0.12696688 -0.0051246756 0.03601919 0.042148013 0.053783588 0.008123346 0.10869699
-0.010572941 0.01975115 0.01909913 0.09255295 0.026203822 0.034651943 0.0090228245 0.059319682
0.11146227 -0.093788266 0.033541523 -0.02949966 0.08135461 -0.06914375 0.012249785 -0.019917123
-0.03800493 0.02707623 0.063533865 0.053463094 -0.042504713 -0.1061558 0.030341035 4.29438e-05
-0.030612329 0.045593113 -0.015096457 0.1104354 -0.026411396 -0.0056917123 0.00787663 -0.07949498
0.027428942 -0.080084085 0.03440937 -0.07814815 -0.03846375 -0.008632809 0.015994713 0.06933822
-0.014924341 0.03402558 0.033083227 -0.059139103 0.0027141457 -0.083614536 -0.06486096 0.091476515
0.008143091 0.09878712 -0.009673896 0.12422341 -0.038079068 0.090609156 -0.07596714 -0.06803512
0.03785903 0.008755976 0.027117882 -0.027185407 -0.014422009 0.007495543 -0.0041924664 -0.08360623
-0.09498502 0.048018213 -0.036971316 0.035436742 -0.016850714 0.0220948 0.05278754 0.06398574
-0.08431471 0.07708276 -0.005716327 -0.059800398 0.057297472 -0.07846811 0.03956966 -0.06420321
-0.042253323 -0.00835664 0.07533318 -0.04631675 -0.0977674 0.05406368 -0.054399043 0.0981095
-0.013034322 -0.09363448 -0.047401387 0.010241435 0.021348612 0.000775314 -0.06713113 0.014754071
0.07670203 -0.030520285 0.05052324 0.09228504 0.046841063 0.074785344 -0.027756196 0.033635065
0.08927735 -0.094259344 0.054141387 -0.036355764 -0.016492447 -0.025566258 -0.0836647 0.101183206
-0.0016502433 0.08292998 -0.093437195 -0.024606695 0.10988131 -0.041648407 0.012707576 0.102204084
-0.058346547 -0.03780686 -0.07523872 -0.021129543 0.051485207 0.033144493 -0.10948146 0.012422608
-0.022737794 0.03672148 0.011547776 -0.054994766 0.09268031 -0.03896098 -0.052601807 0.0661895
-0.06513815 0.03503612 0.020891093 0.02073264 -0.030554857 0.09391328 0.076873876 0.088804625
0.018327042 -0.014570194 -0.0021289655 0.08244171 0.08620086 -0.022447096 0.06324109 0.016706094
-0.11349903 0.0007941789 0.045112737 -0.04639953 -0.078188576 -0.00057407474 -0.006506972 -0.033448525

lstm.bias_ih_l0 f4 [512]
00000000: df69 adbc b5a4 3fbd 7834 38bd 5b3e 21bd
00000010: fbab 1bbb cff3 c63c 2292 65bb 1324 313c
00000020: 996f 15bd eefb 063d 3604 04bd 57f4 a13d
00000030: 2944 8d3d 0014 6c3d bfd9 923d d7b6 093d
00000040: e104 d83c a016 173d 9bac 4d3d 1e4e 293e
00000050: 475d a83d 3fc8 82bc 8f20 db3d 0149 c1bc
00000060: 5831 d83b 3cc1 b13d 6f2b 27bd dabb 7a3d
00000070: ee92 8ebb 53a7 a1bd 05e5 b53c 1773 78bd
00000080: e2d1 a6bd 0073 113d 8262 92bd bc97 bb3d
00000090: 4614 93bd b16c c33c 5ec6 71bb 2f43 a13d
000000a0: 079a f7bc af13 743d fa2e bf3d c04f fc3c
000000b0: 654d 1bbd 4f38 d9bd d92b febc d286 bb3c
000000c0: b008 dabd cc4a a6bd 9220 63bd f915 063e
000000d0: db2c c93d 5997 b13d 6d2e babd b44a b3bd
000000e0: ca11 fe3c 7588 f5bc cc1a b53d d432 653d
000000f0: e7cf dabd fd9c b83d a241 04be c772 053c
00000100: 4262 b53c 5f5a 233d 6070 debd 3452 d3bd
00000110: 4ae1 d1bc 319c 35bd de63 573d 2ea8 c0bc
00000120: aa12 be3c bcf5 b23c e32b 3a3c 9d9f 6cbd
00000130: 0f89 a7b9 b549 3dbc b46b d6bd b165 f33c
00000140: 3805 8e3d 8cc7 113d 86aa bb3c 0eda 6d3c
00000150: c84b daba 705c 0ebd cf93 ebbd 78ff 353d
00000160: 953a 4f3d 8e8c 213d ad18 a6bd 8cd1 e43d
00000170: 4425 983d 19c0 02bd 9b66 0b3d 9b7c ea3c
00000180: 1071 843c f08b 823d 17ac 243d 21bc 8fbb
00000190: 1e16 a8bc bfbe 21bc 4d42 883c 3e5e a13d
000001a0: 1c1d e33d 16ed 91bc 9cc6 243d 2009 6f3d
000001b0: 4d02 65bd 0246 643c a0a7 923c 0efc d13d
000001c0: 70a6 ecbc 393d 83bd 0448 c2bd abf9 073d
000001d0: f617 0dbd 52ab ae3d bd3b febb 9ecf 003d
000001e0: 757b a2bc 8d3d 9d3d cd3b a8bd f8c5 c1bd
000001f0: 1d40 d93c 1e8c db3c f759 7d3d 6bbe ffbc
00000200: ac77 31bd d089 aebd cf37 bdbd 7dc4 1e3d
00000210: 3800 09be c62e 2b3c 9ece b03d 8901 9abd
00000220: ca2b a9bd a396 81bd a2cc 57bc a640 993d
00000230: da14 f1bc d454 00be 1c33 9dbd 6699 793d
00000240: acf3 c2bd c8c0 153d eca5 9cbd 61cb 913c
00000250: aef1 c83c b04e 693c 1490 493c f146 a6bb
00000260: b58a 573c 0edd bbbd 8a0c 823d 0a45 5bbd
00000270: dae2 983d 1fbb bebc e0a5 c6bc c5d9 9a3c
00000280: 8421 03bd 863c 69bd 43ae f93c c4eb 84bd
00000290: c9ef 993c 5aef e7bc 115e 9a3d 3535 de3d
000002a0: e0c0 8e3c 42ec 07bd f788 01bd a4ab 3c3a
000002b0: 8e50 c5bd 8574 f4bc a6e6 b63d 9ada 843d
000002c0: cf32 8f3c b5ed 0fbe 3cee 2e3d 07bf 053d
000002d0: 3c8e 8b3d 0702 013d 3026 ffbd 879e 983d
000002e0: 8202 fb3c d21d d3bd 7cf8 c5bd e3a3 fd3c
000002f0: ba12 d0bd a031 4f3d 898d 09be f067 6a3b
00000300: bc86 1bbd 4363 f3bc 1764 35bb 596c 60bd
00000310: 7f49 98bd ab15 dfbc 0dda 57bd 0b0c b1bd
00000320: 879d 68bc c76b a63d d710 2bbd 9cc6 b5bd
00000330: 5594 d83c 73b5 c2bd 0b80 843c 28a0 bbbc
00000340: 20f0 403d 34ae 6b3c 840a 5e3a f342 90bd
00000350: b3e7 723d c75e d53d 0801 053c 9c6b b13d
00000360: cad3 31bd 9ee9 a0bd 2104 c33b d460 66bd
00000370: 3ccb 00bd cd58 753b d21f 823d e86c d1bd
00000380: 9eda 793c 0c93 a2bd 1004 e43d f582 003d
00000390: 3fcd db3b ef81 e0bc 3f4f 76bd 7fd8 17be
000003a0: ab9f 253d 2c74 413d 51d0 b0bd e16c adbd
000003b0: aa03 003d 08d4 5c3d 395e 5a3d 1498 a13d
000003c0: d2e9 b7bc e185 7b3d fb1d 5f3d 4cd1 80bd
000003d0: 9462 d4bb dddb 4dbd 6990 bf3d 8daf 0c3c
000003e0: d765 01bd 1d03 73bc 7cbe e23c 97e5 4f3d
000003f0: fadf 07ba cd4e b83c 3458 82bd 4b68 38bd
-0.021168647 -0.046787936 -0.044971913 -0.039366107 -0.0023753631 0.024286179 -0.003502973 0.010811823
-0.03648338 0.032955103 -0.03223058 0.07907932 0.06897766 0.05763626 0.07170438 0.033621635
0.026369514 0.03688681 0.050213438 0.16533706 0.08220916 -0.015964625 0.106995694 -0.023594381
0.006597679 0.08679435 -0.040812906 0.061214305 -0.0043510115 -0.07893243 0.022203932 -0.060656633
-0.08145501 0.035510063 -0.07147695 0.091598004 -0.07181601 0.023855539 -0.0036891918 0.078741424
-0.030224813 0.059589084 0.09335132 0.030799747 -0.037915606 -0.10606443 -0.031026768 0.022891436
-0.10646188 -0.08119735 -0.055450983 0.1309432 0.098230086 0.086714454 -0.09090886 -0.08754483
0.031014342 -0.029972294 0.08843002 0.055956677 -0.106841855 0.09014318 -0.12915662 0.008145041
0.02214158 0.039881106 -0.108612776 -0.103184134 -0.025620122 -0.04433841 0.052585475 -0.023517694
0.02320226 0.02184569 0.0113630025 -0.057769407 -0.0003195484 -0.011553218 -0.104697615 0.029711576
0.06934589 0.035590693 0.02290846 0.01451732 -0.0016654665 -0.034756124 -0.115028016 0.044433087
0.050592978 0.039440684 -0.08110175 0.111727804 0.07428983 -0.03192148 0.0340334 0.02862387
0.016167194 0.06374347 0.04020318 -0.0043864404 -0.020518359 -0.009872138 0.016633177 0.078793034
0.110895365 -0.017813247 0.04022847 0.05835831 -0.055910397 0.013932707 0.017902195 0.10253154
-0.028887957 -0.06408162 -0.09486392 0.033197086 -0.03444668 0.085287705 -0.007758586 0.031448
-0.01983426 0.076777555 -0.08214531 -0.09461588 0.02651983 0.026800212 0.061853375 -0.031218728
-0.04332702 -0.085223794 -0.0923916 0.038761605 -0.1337899 0.010448163 0.08633159 -0.07519824
-0.08260305 -0.0632756 -0.013171347 0.07483034 -0.029428888 -0.1253236 -0.07675764 0.060937308
-0.09519133 0.036560804 -0.076488346 0.017797174 0.024529304 0.014239952 0.012302417 -0.005074375
0.013155629 -0.09173022 0.06350048 -0.053532638 0.074651435 -0.023282586 -0.024249017 0.018902669
-0.032014385 -0.056942485 0.030478602 -0.06490281 0.018791096 -0.028312374 0.07537473 0.10849992
0.017425954 -0.033184297 -0.03162476 0.00071972073 -0.09634505 -0.029840717 0.089307114 0.064870074
0.017480282 -0.14055522 0.042707667 0.03265288 0.068142384 0.031496074 -0.124584556 0.07452112
0.030640844 -0.10308422 -0.09666535 0.030961936 -0.10159822 0.050584435 -0.13432898 0.0035767518
-0.03797029 -0.029710418 -0.0027678066 -0.05479083 -0.07435893 -0.027232012 -0.052698184 -0.08644875
-0.014197714 0.08126026 -0.041764107 -0.08875772 0.026437918 -0.09507265 0.016174337 -0.022903517
0.047104 0.014384795 0.0008470195 -0.070440196 0.059302997 0.10418468 0.008117922 0.08663103
-0.04341487 -0.07857059 0.00595142 -0.056244686 -0.03144382 0.0037436963 0.063537255 -0.1022585
0.015249876 -0.07938203 0.11133587 0.03137489 0.006707817 -0.027405707 -0.06013417 -0.1482868
0.040435474 0.04722993 -0.08633483 -0.08468033 0.031253494 0.053913146 0.053312514 0.07890335
-0.022450361 0.061406974 0.05447195 -0.0628992 -0.006481478 -0.050258506 0.09353716 0.008586776
-0.031591263 -0.014832285 0.02767872 0.050756063 -0.00051832164 0.022498513 -0.0636448 -0.045021337

lstm.bias_hh_l0 f4 [512]
00000000: f812 83bd 26bd 9d3d 5dc0 47bc 0af5 3f3d
00000010: 20f0 fabd 41f0 91bb 9e71 f83d 756f c5bc
00000020: 5548 9cbd 50e2 97bd 22e5 023d 932a 943d
00000030: 9ef2 b23d 0685 43bc 0331 f73b d697 58bd
00000040: 7375 1f3d f3b6 8dbd e085 9dbc a8ce 283e
00000050: ea30 fcbc ab85 0cbd e1c8 df3d 0548 0cbc
00000060: ad22 4fbd f4d3 85bd e0da 04bd dd89 073c
00000070: daef 123d 1809 78bd cc57 683d 3c91 94bc
00000080: fb23 b2bd cd47 3fbd bfbb c83c 6f11 2fbd
00000090: 9d88 043d 9f04 42bd 1ed2 3bbd 94a3 bcbc
000000a0: 905a 883d d6dd 273c ce2c 1a3d d214 923b
000000b0: b90a 47bd c83f aebd 01a2 89bd d20a b43d
000000c0: 7be8 e13c 3870 a0bd 6323 393c 00f8 8c3d
000000d0: 6bbd 8a3c f94d 813d c13f 26bd f036 aabc
000000e0: 2d50 81bd 2a92 ddbd 34bc 71bd 5af4 7ebb
000000f0: 38a0 263c 4cfd fa3c 82a9 0fbe da01 583c
00000100: 6ee2 283e 760a afbd 0171 093d a6ef 073d
00000110: 0f0b b9bd 888f e23b bea4 b0bc 46b7 e4bc
00000120: 8503 0abd 3628 2a3d fad0 bc3d c199 dd3a
00000130: 5847 9bbd 3c98 fbbc 8fd4 52bc c529 8e3d
00000140: c089 4fbd ddfa 093d 7a26 ddbd 04ed 1b3c
00000150: e90b a5bc f453 093d 7266 14ba 529a 813d
00000160: 9e7f 1a3d e8ba 603d d4c5 a3bd 84a9 4d3d
00000170: 40f8 edbc a1f7 2cbd 127f b6bd 2b79 b63c
00000180: 26f8 3b3d 3998 6ebd 4357 7c3d bba4 8d3d
00000190: ac89 afbc f3fb 923d 1ef6 b23d a470 aabb
000001a0: 3c60 3bba a6a0 003b 2a66 b63d ed5a 843d
000001b0: 5a32 5fbd 7ea8 51bd fc21 1dbd eae2 26bd
000001c0: 95d1 15bd 6c78 3d3d e45f e0bd 40ff 8b3a
000001d0: 6ae9 91bd 22c9 58bd 306e 6cbc d6e2 073c
000001e0: 9f1a adbc d8d9 98bc 4c26 f5bd bc31 5dbc
000001f0: 5b8b 72bb b9ed 52bd 077e c9bc b99f dfbc
00000200: 1329 bcbd a12f d7bd efcf 1b3c 5b52 bf3d
00000210: 0471 00be 8800 023c 3cbb 833d 5cb2 6e3d
00000220: 9bf0 49bd dd95 763d 7239 dabd ba69 8e3d
00000230: 739c 003d c2e8 0ebe 316e 38bd cf2e d4ba
00000240: 1e9e 79bd e7e1 b93d 359a 833b 69d4 4bbd
00000250: 4122 ffbc 4595 74bd aa30 5dbd 5b95 8fbd
00000260: ac18 42bd ab90 9c3b bf5f 3fbd d9c2 b0bd
00000270: f92c 03bd 3c39 5d3d 0407 f2bd 798b 8cbc
00000280: 4f6d 863d e6f3 adbd 28e9 f73d 30c6 85bc
00000290: 2769 703c 9b39 963d 130e 9a3d 066b 8ebc
000002a0: f87f 32bd a537 973d 0822 033e 153c c53d
000002b0: 5d40 f2bd 0131 253d 6ee0 483c e7c8 afbc
000002c0: d088 6e3d dd91 54bd 9e6f 36bd 137c 7c3d
000002d0: 15e0 b1bd dd0e 9ebd 48b8 cbbc 55d3 a23c
000002e0: efb7 9d3c 7017 afbd fb2a b9bc c808 9b3d
000002f0: 95bb 263d b871 4a3d a4e6 bdbd a5e6 73bd
00000300: e652 7ebd 40ba 603d d4f2 0e3b f748 813d
00000310: 6600 a8bd 7b91 b4bd bf69 643d 0e74 35bd
00000320: 4b95 0b3c 2dbf 9abd 139e a4bd bd4a c1bc
00000330: 353f 653d 9c03 39bd 66be 84bd bb0b 2ebd
00000340: 8710 e7bb df39 983c 0b22 073c 6612 103d
00000350: 8892 c53d 382f 0bbd c1a6 133d 043b 903d
00000360: 6281 023c 940a ecbc 3d44 87bc adfb 4f3a
00000370: e387 fbbc 9368 1e3d 7df2 87bc 0c88 d33c
00000380: e874 4cbd 37c4 b7bd 2acd e83d 920d 9ebd
00000390: 3277 7bbd 2cd6 0a3d ce53 2dbb 87c0 89bd
000003a0: 0e9d 04bd 9659 a03d fa51 293c b4c4 ebbc
000003b0: c2a7 afbb aa96 7cbc a6ff 2c3d feb9 ec3c
000003c0: 4281 38bd efec 933d 2285 6e3d 4356 cbbc
000003d0: b777 183d 5b72 efbd 9439 af3d 7257 603c
000003e0: a5c0 f73a 87e0 ac3d 6f6a 7bbd 2a51 06bd
000003f0: d93e 9c3d dee9 23bd baac bebc 3cd4 643c
-0.064001024 0.07702093 -0.012191859 0.046864547 -0.122528315 -0.0044536893 0.12131046 -0.024100998
-0.07630984 -0.074162126 0.0319568 0.07234683 0.08737682 -0.011933571 0.0075436844 -0.052879177
0.038930368 -0.069196604 -0.019228876 0.16485083 -0.030785043 -0.034307163 0.109269865 -0.008562093
-0.05057018 -0.065345675 -0.032435298 0.008272615 0.03587327 -0.060555547 0.056724355 -0.01813566
-0.08698269 -0.046699334 0.024503587 -0.042741235 0.032356847 -0.04736769 -0.04585468 -0.023027219
0.066578984 0.010245761 0.037640385 0.0044580484 -0.04859421 -0.08508259 -0.06720353 0.08791126
0.027576676 -0.07833904 0.011299941 0.0688324 0.016936025 0.063137 -0.040588144 -0.02077815
-0.063141204 -0.10818894 -0.059017375 -0.003890297 0.010170035 0.03063836 -0.14029506 0.013184035
0.16492626 -0.08546917 0.033555035 0.03318753 -0.090353124 0.006914083 -0.02156293 -0.027919423
-0.033694763 0.041542254 0.092195466 0.0016906784 -0.07581967 -0.03071224 -0.012868061 0.06941561
-0.050668478 0.033686507 -0.107983544 0.009516958 -0.02014728 0.03352733 -0.00056610175 0.063282624
0.03771936 0.054865748 -0.07996717 0.05021049 -0.029049039 -0.042228345 -0.089109555 0.022274574
0.04589095 -0.05825064 0.061606657 0.069161855 -0.021427952 0.07176962 0.087383494 -0.005201416
-0.0007147824 0.0019627004 0.08906205 0.06462655 -0.05449138 -0.051186077 -0.03836249 -0.040743746
-0.036576826 0.04625742 -0.1095579 0.0010680929 -0.07124598 -0.05292619 -0.014430568 0.008293828
-0.021130858 -0.018658563 -0.11970195 -0.013500627 -0.0037009332 -0.05149624 -0.024596227 -0.027297841
-0.09187522 -0.10507131 0.009510024 0.0934188 -0.12543112 0.007934697 0.064321965 0.058275566
-0.049301725 0.060201515 -0.10655488 0.069537595 0.0313992 -0.13955978 -0.04502696 -0.0016188266
-0.060941808 0.090762906 0.0040161856 -0.049763117 -0.031144263 -0.059712667 -0.054001488 -0.07010909
-0.04738681 0.004777988 -0.04672217 -0.08630914 -0.03202531 0.05400966 -0.118177444 -0.01715635
0.06563818 -0.084937856 0.12105018 -0.016329855 0.014673508 0.07335206 0.07522216 -0.017385017
-0.04357907 0.0738366 0.1280595 0.096306 -0.118286826 0.040329937 0.012260539 -0.021458102
0.058235943 -0.05189692 -0.04454004 0.061641764 -0.086853184 -0.07717679 -0.024868146 0.019876162
0.019252745 -0.08549392 -0.022603502 0.07570034 0.040706236 0.049424857 -0.09272507 -0.05954613
-0.062090777 0.05486512 0.0021812217 0.06312745 -0.08203201 -0.08816811 0.05576491 -0.04430013
0.008519481 -0.07555995 -0.08037963 -0.023595208 0.055968482 -0.045169458 -0.06481628 -0.042491656
-0.0070515308 0.018582283 0.008247863 0.035173796 0.09647089 -0.03398058 0.0360477 0.07042506
0.007965418 -0.028813638 -0.01651203 0.0007933926 -0.030704444 0.03867395 -0.01659512 0.025821708
-0.049916178 -0.08972972 0.11367257 -0.07717432 -0.06139297 0.033895656 -0.0026447657 -0.06726175
-0.03237634 0.07829587 0.010334486 -0.028780319 -0.0053605745 -0.0154167805 0.042235993 0.028897282
-0.045045145 0.07222926 0.058232434 -0.024821406 0.037223544 -0.116917334 0.08555904 0.013692724
0.0018902017 0.08441263 -0.0613808 -0.032792248 0.07629175 -0.040017955 -0.023275722 0.013966616

bn.weight f4 [128]
00000000: abba 813f b240 823f 9d3e 7d3f 2947 7e3f
00000010: 689a 833f 2afe 7c3f 6233 763f 84f8 7e3f
00000020: d3c6 7a3f 4cf9 7c3f 1cce 803f 818b 803f
00000030: 67b8 7f3f 66f6 883f e2b5 803f 476b 783f
00000040: 8562 783f 8d4f 773f e484 7b3f e16d 753f
00000050: 5a30 783f e98f 803f 3997 843f beb4 793f
00000060: 41ac 7a3f 1ff8 823f 8f14 723f cb0e 803f
00000070: db4d 853f c205 823f 7809 823f 2cb3 823f
00000080: aeb5 6b3f b3e8 823f 6642 803f 5d6d 743f
00000090: 202a 803f dc95 723f 97e0 723f 6682 803f
000000a0: 6906 793f f0b8 833f 3746 823f 2778 743f
000000b0: 12ee 7e3f 753c 693f 8a85 793f 0bae 793f
000000c0: 0d68 7e3f 8309 773f 8e87 763f 1a50 7e3f
000000d0: fd6e 7b3f bcaf 753f 22a7 823f 4d7b 813f
000000e0: 2901 733f 5f6f 793f 6c46 833f 0454 793f
000000f0: 8574 823f 685f 813f b576 7f3f dd55 803f
00000100: 7dd4 7d3f f579 763f 85a0 7b3f 32ee 823f
00000110: 8cbb 7e3f 8ec9 833f bda2 813f c3e3 7b3f
00000120: a2cf 7d3f 04dd 743f b4b0 793f 97a6 823f
00000130: f45d 7a3f 1c97 853f e47b 7c3f 5714 803f
00000140: a98a 753f b36d 823f 4fc6 803f 5aa3 833f
00000150: 290f 803f 6d50 7d3f bbc9 843f f396 803f
00000160: eb22 813f eb3d 833f e14f 813f 832f 7f3f
00000170: 7f3d 7f3f 39e1 7b3f 1250 803f c89d 823f
00000180: f461 723f d4f9 783f 594b 833f a4b5 7b3f
00000190: fd5b 7d3f 8716 723f 2bd4 813f c530 763f
000001a0: 078d 803f 29ea 803f b2c0 7f3f 7cf9 833f
000001b0: c497 823f 15b0 7c3f b46b 843f 7dfb 803f
000001c0: 749e 843f a2eb 7f3f cafb 843f 0cf2 803f
000001d0: eb4d 823f ce7a 7e3f 3e05 7f3f 4922 6d3f
000001e0: 4a5d 7f3f 1e5b 803f 57c8 713f d113 853f
000001f0: a782 803f 9015 823f 814d 803f fd00 803f
1.0135092 1.0175993 0.98923665 0.9932733 1.0281496 0.98825324 0.96172154 0.99597955
0.9795963 0.98817897 1.00629 1.0042573 0.9989075 1.0700195 1.0055506 0.9703869
0.9702533 0.9660576 0.9824965 0.95870787 0.9694878 1.0043918 1.035865 0.97541416
0.9791909 1.023197 0.9456262 1.0004514 1.0414385 1.0158007 1.015914 1.0210929
0.92074096 1.0227264 1.0020263 0.95479375 1.0012856 0.9475992 0.94873947 1.0039794
0.97275406 1.0290813 1.0177678 0.9549584 0.99582016 0.91107875 0.9746939 0.97531193
0.9937752 0.9649889 0.9630059 0.99340975 0.9821623 0.95971274 1.0207255 1.0115753
0.94923645 0.97435564 1.0255866 0.9739382 1.0191809 1.0107241 0.9979051 1.0026203
0.99152356 0.9627984 0.9829181 1.0228941 0.99504924 1.0295885 1.0127789 0.9839441
0.9914495 0.95649743 0.9753525 1.0207089 0.9779961 1.043674 0.9862654 1.0006207
0.95914704 1.0189728 1.0060519 1.0284226 1.0004627 0.98950845 1.0374063 1.0046066
1.0088781 1.0253271 1.0102502 0.9968187 0.9970321 0.9839054 1.0024436 1.0204401
0.94680715 0.9725621 1.0257369 0.98324037 0.9896849 0.94565624 1.0142874 0.96168166
1.0043038 1.007146 0.99903405 1.0310512 1.0202565 0.9870618 1.0345368 1.0076748
1.0360856 0.9996892 1.038934 1.0073867 1.0180029 0.99406135 0.99617374 0.9263044
0.9975172 1.0027807 0.9444632 1.0396672 1.0039872 1.016283 1.0023652 1.0000302

bn.bias f4 [128]
00000000: 9bde 843c a4bf 723b ae54 a53c 54a2 1a3c
00000010: 57b9 0fbc b5b0 22bd 42ad 3fbd a1bc 0c3c
00000020: f7a5 f7bc 2956 a9bc 119f 52bc 37e7 d6bc
00000030: 3689 f4bc a3d1 573b 4029 dbbc b34a 52bd
00000040: 0062 efbc ead4 39bd 6ff7 28bd 9797 663d
00000050: 8cce 41bd abe4 0dbd 6352 69bc 6559 8f3c
00000060: 9d99 17bd 9f95 36bc dd7a 83bd 869e 4b3c
00000070: a34d 40bc d7cc 033c 3d4b b43c a418 2ebb
00000080: 9baf 88bd 2c50 563b 1152 b2bc 1446 64bd
00000090: 0d9f 8d3c 5ade 60bd 10ab 85bd 8dc6 d6bc
000000a0: d21b 033d c7fb f5bb e8d5 a03a d285 64bd
000000b0: a783 c5bc d517 75bd 7a5d 0b3d dc19 f6bc
000000c0: d4b0 9cbb 479a 2dbd e4b4 57bd f57f 8ebc
000000d0: 1234 123d be3c 5dbd d5f1 58bb 15ae 0ebd
000000e0: e585 703d 07eb 26bd a2d8 68bc 2b00 23bd
000000f0: c35c 903b 4304 583b 9758 a8bc b1d7 84bc
00000100: 8a1e f2bc 9484 6bbd c814 14bd 4664 20bc
00000110: eda7 b0bc 0bec 7dba de18 4aba 3db0 ddbc
00000120: 015c a9bc f5ae 4abd 79b2 f8bc c86c 63bc
00000130: c82d ecbc 2e13 4c3b 1fd1 ce3c 3b9f abbc
00000140: f9aa 48bd 595e 263c 285a 713c 2d0b 373a
00000150: e142 f73b 79aa 9e3c 2402 323b 9eed 9ebc
00000160: 95ef 043c ae54 88bc 5d3f 3f3c 0231 843b
00000170: f6be a0bb 2f64 053d 14e1 9c3b f8be 1f3c
00000180: 3deb 7dbd 53c8 4abd 88b8 81bb 2993 36bd
00000190: 75c9 063d 23c2 50bd cd47 b03a 720a 7ebd
000001a0: a351 16bd dbb2 73bc 3226 ebbc 9a90 bcbb
000001b0: eff9 29bc 1ea6 cc3c b60b 0c3c 95bf a4ba
000001c0: c790 d8bb 48a0 00bd 1ed5 f6bb 7fed abbc
000001d0: da3a 69ba b619 a43c 8093 f8bc c6b7 87bd
000001e0: 609a cf3c 61b0 19bd b933 8cbd a700 bc3b
000001f0: 4a44 0e3c 1e93 643c b06d 69bc 7651 bf3b
0.016219428 0.0037040496 0.02018198 0.009438116 -0.008772216 -0.039719302 -0.04679609 0.0085898945
-0.030230505 -0.020670967 -0.012855307 -0.026233299 -0.029850584 0.003293135 -0.026753068 -0.05134077
-0.029221535 -0.045369066 -0.041251596 0.05629691 -0.04731612 -0.034641903 -0.014240834 0.017498681
-0.03701173 -0.011144071 -0.06419919 0.012427932 -0.01173726 0.008044443 0.022008533 -0.002656498
-0.06674119 0.0032701595 -0.021767648 -0.055730894 0.017287755 -0.05489955 -0.06526768 -0.026217723
0.032008953 -0.007506821 0.001227078 -0.055791683 -0.024110628 -0.05983718 0.034024693 -0.030041628
-0.0047818217 -0.04238346 -0.052662745 -0.017394999 0.03569419 -0.054013006 -0.0033103127 -0.034833986
0.05872144 -0.040751483 -0.014211806 -0.039795082 0.0044055893 0.0032961525 -0.020550055 -0.01621613
-0.029555578 -0.057499483 -0.03615263 -0.009789532 -0.021564448 -0.0009686357 -0.0007709394 -0.027061576
-0.020673754 -0.04948326 -0.03035854 -0.013880916 -0.028830424 0.0031139362 0.025246201 -0.02094995
-0.048991177 0.01015433 0.014730968 0.00069825613 0.0075458144 0.019368397 0.002716192 -0.019400414
0.008113761 -0.01664194 0.011672822 0.0040341625 -0.004905577 0.032566246 0.0047875736 0.00975012
-0.06199192 -0.04950745 -0.0039587654 -0.044573937 0.03290697 -0.050966393 0.0013449133 -0.06202168
-0.03669895 -0.014874185 -0.028704736 -0.0057545425 -0.01037453 0.024981555 0.008547714 -0.0012569303
-0.0066090557 -0.031402856 -0.00753273 -0.02098727 -0.0008897014 0.020031791 -0.030343771 -0.06626849
0.025342166 -0.037521724 -0.06845803 0.0057373825 0.008683274 0.013951091 -0.014247343 0.0058385683

bn.running_mean f4 [128]
00000000: b37f d63d c116 8b3d 76e4 ddbd 04ac 46be
00000010: 9032 0dbd 4ff4 8e3d b088 253d 29f4 4c3e
00000020: d989 04be 52c0 793c 19e7 f83c ffb1 be3c
00000030: c8cb 5d3c df65 6d3d 3a20 39bd 74fb 833b
00000040: 1f13 ca3c 109d 133e ad0f a53c 0581 8f3d
00000050: 7874 193e 9b1d 1e3d c4d9 e8ba e12b ea3c
00000060: cd75 d53c 2ad3 2e3d 0082 b7bc 10be 2d3d
00000070: f92d 9f3d 788e 29bd 02fa 97bd 54cd 9fbd
00000080: 4ab0 8e3d 2cdb 89bc 8aa0 fabd eb72 c73d
00000090: c560 8f3c 4bf6 0d3d ccb9 363d 108b 303e
000000a0: d33d 1c3e 4293 3cbd 6fc4 03bd f4ae e33d
000000b0: 581b 2e3d 9d6d 643d 7b72 3dbd b7f1 48be
000000c0: 02f2 323d 641c 05bb 77e6 bd3c 08fa 6b3d
000000d0: c976 a3bd 32e0 f43d 1485 46bd c56e 8e3e
000000e0: 4d30 d73d 74f3 883d 193d 6dbd 5779 8abd
000000f0: 9c5c 2e3d 07da 0d3e 6a2c bebd 417f 2dbd
00000100: 75ca 12be 00fb f53d 4bc8 4c3d 0950 ca3b
00000110: 3064 283e 7d3f a8bc a097 0abe 2e62 e53b
00000120: 3675 153e a8f1 b83d b6b9 843d 1243 d73c
00000130: 0b97 633d 2f49 5b3e 0454 cebd 5cab e43d
00000140: de61 87bd b819 143e db06 843d 246f dc3d
00000150: da84 1dbd c338 2cbe cc1d 8cbc 7031 653d
00000160: 4771 bb3d 33d4 10be f814 11bc 7d5a abbd
00000170: 4c87 723d 2098 d03d 30df b63b e5ea b63c
00000180: 1f14 7e3b 15c7 aa3c c252 e3bd bace 60bd
00000190: 0096 02bd 4836 54bd 2795 313d c992 80bd
000001a0: ec24 113e eba1 97bd e0c4 083d 23b0 843c
000001b0: 183a 59bd a58d a93d 50f0 00be 23a8 573e
000001c0: fa2f 91bc ea8b 0d3e 57f9 0fbe 37e4 febc
000001d0: 2366 b53d 14c8 7f3d 4b74 f53d b707 8b3d
000001e0: 1e0d f9ba cc3b bcbc 6c3e 123e 90d2 6d3d
000001f0: fc01 4fbe b65f 093d e01f 04be dae7 243e
0.104735754 0.06791449 -0.10834591 -0.19401556 -0.03447205 0.06980192 0.04041356 0.20015015
-0.1294321 0.015243607 0.030383633 0.023278235 0.013537355 0.05795848 -0.04519675 0.0040277783
0.02466732 0.14415383 0.020149076 0.070070304 0.14985836 0.038602453 -0.0017765095 0.028585376
0.026057148 0.04268185 -0.022400856 0.042417586 0.077724405 -0.041395634 -0.07420732 -0.07802835
0.06967218 -0.016828142 -0.12237652 0.09738716 0.017502198 0.03465871 0.044610783 0.17240548
0.15257959 -0.046038873 -0.032169756 0.11117354 0.042506546 0.055768598 -0.046251755 -0.19623457
0.043687828 -0.0020311112 0.023181183 0.057611495 -0.07981641 0.11956824 -0.048466757 0.27818885
0.105072595 0.0668706 -0.057919595 -0.06761425 0.042568788 0.13852702 -0.09285815 -0.042357687
-0.14335044 0.12010765 0.0499957 0.0061740917 0.16444468 -0.020538086 -0.13534403 0.0070002293
0.14595494 0.09030467 0.06480734 0.026277099 0.055563968 0.21414636 -0.100746185 0.11165497
-0.066104636 0.14462936 0.0644662 0.10763386 -0.038456775 -0.16818528 -0.017104052 0.05595535
0.09152465 -0.14143448 -0.008855097 -0.08366869 0.05921106 0.101852655 0.0055808052 0.022328803
0.0038769317 0.020846883 -0.11099769 -0.05488465 -0.031881332 -0.05180958 0.043355133 -0.06277997
0.14174241 -0.0740393 0.03339088 0.01619727 -0.05303392 0.0827897 -0.12591672 0.21060233
-0.017723072 0.13822904 -0.1405996 -0.03111468 0.08857372 0.06244667 0.11985072 0.06788581
-0.0019001102 -0.022977732 0.14281625 0.058062136 -0.202156 0.033538543 -0.12902784 0.1610407

bn.running_var f4 [128]
00000000: 2e76 973d e8d4 c23d 210f 413d f21d 9e3d
00000010: 4e13 2f3d 073f 433d 72eb dd3d 3048 c13d
00000020: b6ee 613d 4c87 403d 354d 6c3d 7fe2 4e3d
00000030: df57 8d3d 5db9 713d 5631 d03d 864c 753d
00000040: df2a 723d 2053 8e3d 73e8 853d c370 003e
00000050: 4b0a 5f3d cbbd 6a3d 3d93 683d 8aa6 303d
00000060: 87fe f63c 69c2 253d 2c46 8f3d 6a16 c03d
00000070: 513e df3d 514e 883d cdcd 373d f413 5c3d
00000080: ca57 633d 37aa 803d 22d5 5d3d bfc3 a03d
00000090: cb8a 0e3d 7462 423d e111 823d f3ba bc3d
000000a0: 4fcf 423d 4f4c c33d 5a21 9e3d eb53 983d
000000b0: 1d8e 2a3d b8d6 7a3d d274 9d3d 9ca2 243e
000000c0: eec9 903d 7bdc 533d df85 8f3d 4503 d43d
000000d0: 52df 5f3d 9342 923d 60cf 1b3d 2553 c53d
000000e0: c22a 5c3d f5cb 3e3d a564 ce3d 8491 653d
000000f0: 3a82 703d a495 a03d f3de 1e3d 58c1 563d
00000100: 6bf1 f33d b6cd de3c c534 783d a29d f13c
00000110: 771f 993d 7cca 2d3d fd58 873d b1ac 693d
00000120: 7503 2b3e b151 2b3d bcc8 8f3d bfa5 613d
00000130: 1c77 4c3d 7663 933d 3805 a83d 92eb 753d
00000140: adba b23d acb1 483d 6f6b 6f3d 48d0 933d
00000150: 20c1 073e bbd0 8a3d 5c5a 813d 4ad4 b03d
00000160: 6c04 df3d be50 453d 3d59 6c3d 971d 533d
00000170: 252b 133d 2e82 8a3d cca8 013d f409 073e
00000180: 835c 803d c0f5 5f3d b5e4 8a3d d8f6 203d
00000190: 040a 713d 307f 9c3d ad1c 8c3d 1505 7e3d
000001a0: 451c 973d 7084 ae3d 67e5 a33d b125 8e3d
000001b0: a6c5 713d e454 233d 3202 443d 7289 8f3d
000001c0: c0d9 373d 8d90 903d 76e0 4f3d a04a 0c3d
000001d0: 18fb 053d ac21 b83d d879 db3d 5051 403d
000001e0: 2823 603d 0123 c33d 8ceb 923d f000 333d
000001f0: edc4 943d 7e10 453d 69da 8a3d 141f 563d
0.07395588 0.09513265 0.04713357 0.07720555 0.04274302 0.04766753 0.10835923 0.09437597
0.055159293 0.04700403 0.057690818 0.050508972 0.06901526 0.059014667 0.1016566 0.05988743
0.059122916 0.069494486 0.06538477 0.12543015 0.054453176 0.057309907 0.056781042 0.043127574
0.030150665 0.040468607 0.06995806 0.09379275 0.10900558 0.06655563 0.044874 0.053729966
0.055503644 0.06282466 0.054158337 0.078498356 0.034800332 0.047457173 0.063510664 0.09215345
0.047560986 0.09536039 0.07721205 0.07437881 0.041639436 0.061239928 0.07688297 0.16077656
0.07069765 0.05172394 0.07007956 0.10352186 0.054656334 0.07141604 0.038039565 0.09634999
0.053751715 0.046581227 0.1007779 0.056046978 0.058717944 0.07841042 0.03878684 0.05243048
0.11911281 0.0271977 0.0605972 0.02949411 0.074767046 0.042429432 0.0660877 0.057049457
0.16700538 0.041825954 0.07020709 0.05508971 0.04991828 0.07196705 0.082041204 0.06003911
0.08727012 0.048997566 0.058452066 0.07217461 0.13257265 0.067780934 0.06316063 0.08634241
0.10889515 0.048172705 0.05770229 0.05154189 0.035929818 0.06763111 0.031655118 0.1318739
0.06267645 0.054677725 0.06781904 0.03929791 0.058847442 0.076414466 0.06841407 0.062016565
0.07378439 0.08521354 0.080027394 0.06940783 0.059026383 0.03987588 0.047853656 0.070086375
0.044885397 0.07058821 0.050751172 0.034250855 0.032710165 0.089907974 0.10716599 0.046952546
0.054721028 0.09528161 0.07173833 0.043702066 0.07264123 0.04811143 0.0677994 0.052275732

fc.1.weight f4 [128]
00000000: e76c 863f ddac 7f3f 41f7 823f c791 7a3f
00000010: cf9d 883f ae1d 813f d6af 813f 545b 763f
00000020: b923 853f 5916 883f 1576 833f 37c4 843f
00000030: 3198 863f 1461 893f b9d8 883f d0a0 7e3f
00000040: 9142 823f 9678 873f e6c5 803f 9e76 833f
00000050: bed5 8d3f 5cc4 913f 7de7 883f 3373 863f
00000060: 3349 883f 5638 7d3f 1fa7 7e3f b419 8b3f
00000070: 4cf7 853f 99f5 873f 165f 833f 2e99 823f
00000080: 082b 823f 26dc 8c3f 5daa 823f 0a1e 833f
00000090: e111 803f 2793 833f c7a1 833f 66d8 7a3f
000000a0: f054 8a3f a9b6 893f d946 833f 7172 843f
000000b0: 79c2 8a3f c868 853f 55d5 7f3f 2b86 7f3f
000000c0: ef04 833f 38dc 883f 5e67 8d3f ac1a 863f
000000d0: 4280 853f 2e7b 863f 8fca 753f 773b 7d3f
000000e0: a8af 7b3f be9a 793f 579b 8b3f 7490 913f
000000f0: 8012 8a3f 3681 853f b4a5 843f 044c 813f
00000100: fce9 853f dfe9 803f 71b0 803f 7e99 803f
00000110: 320e 893f 1e98 803f a72c 7a3f aff3 7f3f
00000120: 02ca 713f da0b 7c3f 6cb7 863f ab11 7f3f
00000130: 1850 873f 063e 823f ffb9 883f d40b 863f
00000140: caa9 843f 668b 8d3f b55f 863f a914 7b3f
00000150: 5712 833f d975 853f 56c2 803f aa2f 863f
00000160: 523e 823f 93c3 833f 1b70 813f 969e 7f3f
00000170: 0821 733f 9606 8c3f f118 7e3f a613 833f
00000180: cb26 873f 84e9 823f 3f94 843f 8445 853f
00000190: 1128 843f ab29 823f 88b0 8d3f 1782 863f
000001a0: 90eb 7e3f aa9e 853f 66d7 8a3f 5cda 853f
000001b0: 10d8 8e3f e0a6 893f 9045 903f 456a 8c3f
000001c0: ddce 803f 8bae 8d3f 89b8 863f 0a04 843f
000001d0: 6b72 803f 20a7 8a3f 6374 893f ecf9 803f
000001e0: 2350 853f 261b 853f f1b7 883f f385 873f
000001f0: d1ec 813f 9ea8 813f a7ff 8a3f 2a8b 843f
1.0501984 0.99873143 1.0231706 0.9787869 1.0673159 1.0087183 1.0131786 0.96233106
1.0401527 1.063182 1.0270411 1.037238 1.0515195 1.0732751 1.0691139 0.9946413
1.0176564 1.0583675 1.0060394 1.0270574 1.1080854 1.1388049 1.0695645 1.0503906
1.0647339 0.98914087 0.99473757 1.0867219 1.0466094 1.0621825 1.0263393 1.0202997
1.0169382 1.1004684 1.0208241 1.0243542 1.0005456 1.0279282 1.0283746 0.9798645
1.0807171 1.0758868 1.0255996 1.0347425 1.0840598 1.0422602 0.99934894 0.998141
1.0235881 1.0692205 1.104717 1.047689 1.0429766 1.0506341 0.96012205 0.9891886
0.98314905 0.9750174 1.0906781 1.1372209 1.0786896 1.0430057 1.0363069 1.0101323
1.0462031 1.0071372 1.0053846 1.0046842 1.0707457 1.0046422 0.97724384 0.99981207
0.94448864 0.98455584 1.0524726 0.99636334 1.0571318 1.0175178 1.0681762 1.047236
1.0364316 1.1058166 1.0497957 0.980784 1.0239972 1.0426589 1.0059307 1.0483296
1.0175269 1.029406 1.0112337 0.9985136 0.94972277 1.093951 0.9925681 1.0240371
1.0558714 1.0227513 1.0357741 1.041184 1.0324727 1.0168966 1.1069498 1.050845
0.9957819 1.0439045 1.0846984 1.0457263 1.1159687 1.0754051 1.1271229 1.0969931
1.006313 1.1068891 1.0525066 1.0313733 1.0034918 1.0832253 1.0738643 1.007627
1.0415081 1.039891 1.0681134 1.0587753 1.0150396 1.0129583 1.0859269 1.035497

fc.1.bias f4 [128]
00000000: bf87 0f3c 3e4c 99ba c125 d73a e27c 853c
00000010: beed b23c b9c7 533c 3604 0d3d 00c3 2abd
00000020: e71b 723d 7766 6f3d 03f4 9a3c af07 153d
00000030: e53d 543d de1b 6a3d 23df 7f3d af5d 923c
00000040: ea54 213d 9432 553d cfb5 343d e04e 1e3d
00000050: 7f07 ce3d 59af e93d 0689 863d 4871 343c
00000060: 7392 a03d 7f7c b33b cbd8 903c af8d a83d
00000070: de3c 2e3d b206 6f3d 77dc 683c 3b0c 343d
00000080: 184f cb3c f791 7a3d 3078 fe3c defa 553c
00000090: 1aca 583d d66d 1e3d dc87 1f3d 8f8e 87bc
000000a0: 033f 8a3d 8fff 743d a2d4 a53c 51c7 033d
000000b0: 6392 733d 3bfa 833c c839 9abc c2f3 3abc
000000c0: e444 a33c 1506 9d3d 2f35 c03d 1426 383d
000000d0: 6997 b33c 7d6c 8f3d 6743 3dbd 550a 573a
000000e0: 77ea 0abd dd68 d6bc 1fd9 863d e4a2 a53d
000000f0: 7113 1f3d e9dd 783d 058d 4a3d fd8f 623b
00000100: 71c2 e33a 87e3 72bb a2f8 913c 47e4 c4b9
00000110: bd35 733d 0266 073d 0259 61bb 194c debc
00000120: 339b 14bd b15a 1f3d d3d4 643d 40e7 533c
00000130: 2e13 a93d db48 3ebc 9034 493d fc8b 653d
00000140: 2ede 503d a28c f93d dd3a 0e3d cbf8 e7bc
00000150: 0a89 d9ba 92a7 433d 2bea f53c 7288 b13c
00000160: 208d 073c f6ac b23c 2435 e03c ecda f83b
00000170: 1545 38bd 88d5 a73d 208f 00bd edec 693c
00000180: ad8b 3b3d 6bd2 0a3d b14a 453d 82a6 8f3d
00000190: e246 233d 34dd 5f3c 73f8 e43d 81e2 1b3d
000001a0: 8b6f bc3c 3815 513d d4f3 a43d f164 a03c
000001b0: a65d e43d 2599 483d 1412 f73d 6cdd 8f3d
000001c0: 4e69 443d ea9b c33d 7b47 543d 9ee9 5f3d
000001d0: 9d7d c13c 48e7 603d fbe5 873d a587 5a3c
000001e0: a853 bb3c 2ce5 3c3c 13a4 9b3c da6c 9c3d
000001f0: 3f62 ff3c dd32 b43c 2cd8 dc3d b0b1 143d
0.008760392 -0.0011695696 0.001641445 0.0162949 0.02184188 0.012926036 0.034427844 -0.041689873
0.05910864 0.058447327 0.018915182 0.03638428 0.05181684 0.057155482 0.06246866 0.017866937
0.03938762 0.05205019 0.0441187 0.03864944 0.100600235 0.11410398 0.06569104 0.0110133365
0.07840433 0.0054774876 0.0176815 0.08230149 0.042538516 0.058355995 0.014212719 0.043956976
0.024817988 0.06117436 0.03106317 0.0130603 0.052927114 0.038678966 0.038947925 -0.01654747
0.067503 0.059814032 0.020242993 0.032172505 0.059465777 0.01611053 -0.01882638 -0.011410655
0.01993031 0.07667176 0.09385144 0.04495819 0.021922784 0.07003114 -0.046206858 0.0008203139
-0.03391501 -0.02617305 0.06584381 0.080877095 0.0388369 0.060758505 0.049450893 0.0034570687
0.0017376674 -0.0037061886 0.017818753 -0.00037554113 0.05937742 0.033056267 -0.0034385328 -0.027135896
-0.036280822 0.03890485 0.055867027 0.012933552 0.08255611 -0.01161405 0.049122393 0.056041703
0.050993137 0.12185027 0.034724105 -0.028316876 -0.0016596627 0.04776723 0.030018887 0.021671508
0.008273393 0.02181099 0.02736909 0.007594457 -0.044987757 0.08195025 -0.031386495 0.014277679
0.045787502 0.033892076 0.048166934 0.07014181 0.03986252 0.013663579 0.111802004 0.038057808
0.023002407 0.051045626 0.08054319 0.019579383 0.111506745 0.048974175 0.12063995 0.07024655
0.04795199 0.095512226 0.05182598 0.054666154 0.023619467 0.054908067 0.06635662 0.013338004
0.022867039 0.011529248 0.018999135 0.07637949 0.031174777 0.02199691 0.10783419 0.03630227
